…
2022-09-27 10:30:47.275117: I tensorflow/core/platform/cpu_feature_guard.cc:193] This TensorFlow binary is optimized with oneAPI Deep Neural Network Library (oneDNN) to use the following CPU instructions in performance-critical operations:  AVX AVX2
To enable them in other operations, rebuild TensorFlow with the appropriate compiler flags.
Model: "model"
_________________________________________________________________
 Layer (type)                Output Shape              Param #
=================================================================
 input_1 (InputLayer)        [(None, 100, 100, 3)]     0

 block1_conv1 (Conv2D)       (None, 100, 100, 64)      1792

 block1_conv2 (Conv2D)       (None, 100, 100, 64)      36928

 block1_pool (MaxPooling2D)  (None, 50, 50, 64)        0

 block2_conv1 (Conv2D)       (None, 50, 50, 128)       73856

 block2_conv2 (Conv2D)       (None, 50, 50, 128)       147584

 block2_pool (MaxPooling2D)  (None, 25, 25, 128)       0

 block3_conv1 (Conv2D)       (None, 25, 25, 256)       295168

 block3_conv2 (Conv2D)       (None, 25, 25, 256)       590080

 block3_conv3 (Conv2D)       (None, 25, 25, 256)       590080

 block3_pool (MaxPooling2D)  (None, 12, 12, 256)       0

 block4_conv1 (Conv2D)       (None, 12, 12, 512)       1180160

 block4_conv2 (Conv2D)       (None, 12, 12, 512)       2359808

 block4_conv3 (Conv2D)       (None, 12, 12, 512)       2359808

 block4_pool (MaxPooling2D)  (None, 6, 6, 512)         0

 block5_conv1 (Conv2D)       (None, 6, 6, 512)         2359808

 block5_conv2 (Conv2D)       (None, 6, 6, 512)         2359808

 block5_conv3 (Conv2D)       (None, 6, 6, 512)         2359808

 block5_pool (MaxPooling2D)  (None, 3, 3, 512)         0

 flatten (Flatten)           (None, 4608)              0

 dense (Dense)               (None, 8)                 36872

=================================================================
Total params: 14,751,560
Trainable params: 36,872
Non-trainable params: 14,714,688
_________________________________________________________________
-- gen.flow_from_directory
Found 1285 images belonging to 8 classes.
-- test_gen.class_indices: {'Apple Golden 1': 0, 'Avocado': 1, 'Banana': 2, 'Kiwi': 3, 'Lemon': 4, 'Mango': 5, 'Raspberry': 6, 'Strawberry': 7}
…
