…
2022-10-14 16:49:00.518521: I tensorflow/core/common_runtime/gpu/gpu_device.cc:1510] Created device /job:localhost/replica:0/task:0/device:GPU:0 with 2153 MB memory:  -> device: 0, name: NVIDIA GeForce GTX 1650, pci bus id: 0000:01:00.0, compute capability: 7.5
2022-10-14 16:49:01.040513: I tensorflow/core/common_runtime/gpu/gpu_device.cc:1510] Created device /job:localhost/replica:0/task:0/device:GPU:0 with 2153 MB memory:  -> device: 0, name: NVIDIA GeForce GTX 1650, pci bus id: 0000:01:00.0, compute capability: 7.5
Model: "model"
__________________________________________________________________________________________________
Layer (type)                    Output Shape         Param #     Connected to
==================================================================================================
input_1 (InputLayer)            [(None, 224, 224, 3) 0
__________________________________________________________________________________________________
zero_padding2d (ZeroPadding2D)  (None, 230, 230, 3)  0           input_1[0][0]
__________________________________________________________________________________________________
conv2d (Conv2D)                 (None, 112, 112, 64) 9472        zero_padding2d[0][0]
__________________________________________________________________________________________________
batch_normalization (BatchNorma (None, 112, 112, 64) 256         conv2d[0][0]
__________________________________________________________________________________________________
activation (Activation)         (None, 112, 112, 64) 0           batch_normalization[0][0]
__________________________________________________________________________________________________
zero_padding2d_1 (ZeroPadding2D (None, 114, 114, 64) 0           activation[0][0]
__________________________________________________________________________________________________
max_pooling2d (MaxPooling2D)    (None, 56, 56, 64)   0           zero_padding2d_1[0][0]
__________________________________________________________________________________________________
conv2d_1 (Conv2D)               (None, 56, 56, 64)   4160        max_pooling2d[0][0]
__________________________________________________________________________________________________
batch_normalization_1 (BatchNor (None, 56, 56, 64)   256         conv2d_1[0][0]
__________________________________________________________________________________________________
activation_1 (Activation)       (None, 56, 56, 64)   0           batch_normalization_1[0][0]
__________________________________________________________________________________________________
conv2d_2 (Conv2D)               (None, 56, 56, 64)   36928       activation_1[0][0]
__________________________________________________________________________________________________
batch_normalization_2 (BatchNor (None, 56, 56, 64)   256         conv2d_2[0][0]
__________________________________________________________________________________________________
activation_2 (Activation)       (None, 56, 56, 64)   0           batch_normalization_2[0][0]
__________________________________________________________________________________________________
conv2d_3 (Conv2D)               (None, 56, 56, 256)  16640       activation_2[0][0]
__________________________________________________________________________________________________
conv2d_4 (Conv2D)               (None, 56, 56, 256)  16640       max_pooling2d[0][0]
__________________________________________________________________________________________________
batch_normalization_3 (BatchNor (None, 56, 56, 256)  1024        conv2d_3[0][0]
__________________________________________________________________________________________________
batch_normalization_4 (BatchNor (None, 56, 56, 256)  1024        conv2d_4[0][0]
__________________________________________________________________________________________________
add (Add)                       (None, 56, 56, 256)  0           batch_normalization_3[0][0]
                                                                 batch_normalization_4[0][0]
__________________________________________________________________________________________________
activation_3 (Activation)       (None, 56, 56, 256)  0           add[0][0]
__________________________________________________________________________________________________
conv2d_5 (Conv2D)               (None, 56, 56, 64)   16448       activation_3[0][0]
__________________________________________________________________________________________________
batch_normalization_5 (BatchNor (None, 56, 56, 64)   256         conv2d_5[0][0]
__________________________________________________________________________________________________
activation_4 (Activation)       (None, 56, 56, 64)   0           batch_normalization_5[0][0]
__________________________________________________________________________________________________
conv2d_6 (Conv2D)               (None, 56, 56, 64)   36928       activation_4[0][0]
__________________________________________________________________________________________________
batch_normalization_6 (BatchNor (None, 56, 56, 64)   256         conv2d_6[0][0]
__________________________________________________________________________________________________
activation_5 (Activation)       (None, 56, 56, 64)   0           batch_normalization_6[0][0]
__________________________________________________________________________________________________
conv2d_7 (Conv2D)               (None, 56, 56, 256)  16640       activation_5[0][0]
__________________________________________________________________________________________________
batch_normalization_7 (BatchNor (None, 56, 56, 256)  1024        conv2d_7[0][0]
__________________________________________________________________________________________________
add_1 (Add)                     (None, 56, 56, 256)  0           batch_normalization_7[0][0]
                                                                 activation_3[0][0]
__________________________________________________________________________________________________
activation_6 (Activation)       (None, 56, 56, 256)  0           add_1[0][0]
__________________________________________________________________________________________________
conv2d_8 (Conv2D)               (None, 56, 56, 64)   16448       activation_6[0][0]
__________________________________________________________________________________________________
batch_normalization_8 (BatchNor (None, 56, 56, 64)   256         conv2d_8[0][0]
__________________________________________________________________________________________________
activation_7 (Activation)       (None, 56, 56, 64)   0           batch_normalization_8[0][0]
__________________________________________________________________________________________________
conv2d_9 (Conv2D)               (None, 56, 56, 64)   36928       activation_7[0][0]
__________________________________________________________________________________________________
batch_normalization_9 (BatchNor (None, 56, 56, 64)   256         conv2d_9[0][0]
__________________________________________________________________________________________________
activation_8 (Activation)       (None, 56, 56, 64)   0           batch_normalization_9[0][0]
__________________________________________________________________________________________________
conv2d_10 (Conv2D)              (None, 56, 56, 256)  16640       activation_8[0][0]
__________________________________________________________________________________________________
batch_normalization_10 (BatchNo (None, 56, 56, 256)  1024        conv2d_10[0][0]
__________________________________________________________________________________________________
add_2 (Add)                     (None, 56, 56, 256)  0           batch_normalization_10[0][0]
                                                                 activation_6[0][0]
__________________________________________________________________________________________________
activation_9 (Activation)       (None, 56, 56, 256)  0           add_2[0][0]
__________________________________________________________________________________________________
conv2d_11 (Conv2D)              (None, 56, 56, 128)  32896       activation_9[0][0]
__________________________________________________________________________________________________
batch_normalization_11 (BatchNo (None, 56, 56, 128)  512         conv2d_11[0][0]
__________________________________________________________________________________________________
activation_10 (Activation)      (None, 56, 56, 128)  0           batch_normalization_11[0][0]
__________________________________________________________________________________________________
conv2d_12 (Conv2D)              (None, 56, 56, 128)  147584      activation_10[0][0]
__________________________________________________________________________________________________
batch_normalization_12 (BatchNo (None, 56, 56, 128)  512         conv2d_12[0][0]
__________________________________________________________________________________________________
activation_11 (Activation)      (None, 56, 56, 128)  0           batch_normalization_12[0][0]
__________________________________________________________________________________________________
conv2d_13 (Conv2D)              (None, 56, 56, 512)  66048       activation_11[0][0]
__________________________________________________________________________________________________
conv2d_14 (Conv2D)              (None, 56, 56, 512)  131584      activation_9[0][0]
__________________________________________________________________________________________________
batch_normalization_13 (BatchNo (None, 56, 56, 512)  2048        conv2d_13[0][0]
__________________________________________________________________________________________________
batch_normalization_14 (BatchNo (None, 56, 56, 512)  2048        conv2d_14[0][0]
__________________________________________________________________________________________________
add_3 (Add)                     (None, 56, 56, 512)  0           batch_normalization_13[0][0]
                                                                 batch_normalization_14[0][0]
__________________________________________________________________________________________________
activation_12 (Activation)      (None, 56, 56, 512)  0           add_3[0][0]
__________________________________________________________________________________________________
conv2d_15 (Conv2D)              (None, 56, 56, 128)  65664       activation_12[0][0]
__________________________________________________________________________________________________
batch_normalization_15 (BatchNo (None, 56, 56, 128)  512         conv2d_15[0][0]
__________________________________________________________________________________________________
activation_13 (Activation)      (None, 56, 56, 128)  0           batch_normalization_15[0][0]
__________________________________________________________________________________________________
conv2d_16 (Conv2D)              (None, 56, 56, 128)  147584      activation_13[0][0]
__________________________________________________________________________________________________
batch_normalization_16 (BatchNo (None, 56, 56, 128)  512         conv2d_16[0][0]
__________________________________________________________________________________________________
activation_14 (Activation)      (None, 56, 56, 128)  0           batch_normalization_16[0][0]
__________________________________________________________________________________________________
conv2d_17 (Conv2D)              (None, 56, 56, 512)  66048       activation_14[0][0]
__________________________________________________________________________________________________
batch_normalization_17 (BatchNo (None, 56, 56, 512)  2048        conv2d_17[0][0]
__________________________________________________________________________________________________
add_4 (Add)                     (None, 56, 56, 512)  0           batch_normalization_17[0][0]
                                                                 activation_12[0][0]
__________________________________________________________________________________________________
activation_15 (Activation)      (None, 56, 56, 512)  0           add_4[0][0]
__________________________________________________________________________________________________
conv2d_18 (Conv2D)              (None, 56, 56, 128)  65664       activation_15[0][0]
__________________________________________________________________________________________________
batch_normalization_18 (BatchNo (None, 56, 56, 128)  512         conv2d_18[0][0]
__________________________________________________________________________________________________
activation_16 (Activation)      (None, 56, 56, 128)  0           batch_normalization_18[0][0]
__________________________________________________________________________________________________
conv2d_19 (Conv2D)              (None, 56, 56, 128)  147584      activation_16[0][0]
__________________________________________________________________________________________________
batch_normalization_19 (BatchNo (None, 56, 56, 128)  512         conv2d_19[0][0]
__________________________________________________________________________________________________
activation_17 (Activation)      (None, 56, 56, 128)  0           batch_normalization_19[0][0]
__________________________________________________________________________________________________
conv2d_20 (Conv2D)              (None, 56, 56, 512)  66048       activation_17[0][0]
__________________________________________________________________________________________________
batch_normalization_20 (BatchNo (None, 56, 56, 512)  2048        conv2d_20[0][0]
__________________________________________________________________________________________________
add_5 (Add)                     (None, 56, 56, 512)  0           batch_normalization_20[0][0]
                                                                 activation_15[0][0]
__________________________________________________________________________________________________
activation_18 (Activation)      (None, 56, 56, 512)  0           add_5[0][0]
__________________________________________________________________________________________________
conv2d_21 (Conv2D)              (None, 56, 56, 128)  65664       activation_18[0][0]
__________________________________________________________________________________________________
batch_normalization_21 (BatchNo (None, 56, 56, 128)  512         conv2d_21[0][0]
__________________________________________________________________________________________________
activation_19 (Activation)      (None, 56, 56, 128)  0           batch_normalization_21[0][0]
__________________________________________________________________________________________________
conv2d_22 (Conv2D)              (None, 56, 56, 128)  147584      activation_19[0][0]
__________________________________________________________________________________________________
batch_normalization_22 (BatchNo (None, 56, 56, 128)  512         conv2d_22[0][0]
__________________________________________________________________________________________________
activation_20 (Activation)      (None, 56, 56, 128)  0           batch_normalization_22[0][0]
__________________________________________________________________________________________________
conv2d_23 (Conv2D)              (None, 56, 56, 512)  66048       activation_20[0][0]
__________________________________________________________________________________________________
batch_normalization_23 (BatchNo (None, 56, 56, 512)  2048        conv2d_23[0][0]
__________________________________________________________________________________________________
add_6 (Add)                     (None, 56, 56, 512)  0           batch_normalization_23[0][0]
                                                                 activation_18[0][0]
__________________________________________________________________________________________________
activation_21 (Activation)      (None, 56, 56, 512)  0           add_6[0][0]
__________________________________________________________________________________________________
flatten (Flatten)               (None, 1605632)      0           activation_21[0][0]
__________________________________________________________________________________________________
dense (Dense)                   (None, 4)            6422532     flatten[0][0]
==================================================================================================
Total params: 7,882,628
Trainable params: 7,872,516
Non-trainable params: 10,112
__________________________________________________________________________________________________
Found 2487 images belonging to 4 classes.
test_ge.class_indices: {'EOSINOPHIL': 0, 'LYMPHOCYTE': 1, 'MONOCYTE': 2, 'NEUTROPHIL': 3}
…
